Freshness/eye_freshness.onnx (onnx, 863756 bytes, 38 tensors)

features.1.0.block.1.fc1.bias f4 [8]
00000000: 0f1d 823e 8d22 debf 4e3e ffbf 6367 0fc0
00000010: c9a5 4cbe cf42 aabf d7dd 08bf e730 9cbf
0.25412795 -1.7354294 -1.9940889 -2.2406852 -0.19985117 -1.3301638 -0.534635 -1.2202424

features.1.0.block.1.fc2.bias f4 [32]
00000000: 48e1 29c0 3d25 cebf d770 10c0 7ea4 80be
00000010: 64b7 a93d af82 de3d cd2b b73e 1604 3ac0
00000020: 03c4 09c0 6201 61bf fb2e 0ac0 0acc 42be
00000030: 8a3b f5bf e4f6 2fc0 2bef 97be 52c9 e9bf
00000040: 9aea d3bf 3ea6 f6bf 8b2e 20c0 8dc7 02c0
00000050: 3332 01c0 a365 a4bf 8bf6 133f f61a 04c0
00000060: 6136 46c0 4429 3cbf f53f 44bf f855 10c0
00000070: 3bb8 9fbf 60ca 3bc0 dd0c 14c0 5efc ecbd
-2.654375 -1.6105114 -2.2568872 -0.25125498 0.08286932 0.1086477 0.35775605 -2.9064994
-2.1525886 -0.87892735 -2.1591175 -0.19023147 -1.9158795 -2.749444 -0.29674658 -1.8264563
-1.655597 -1.9269483 -2.5028408 -2.0434296 -2.018689 -1.2843517 0.5779807 -2.0641456
-3.097069 -0.73500466 -0.7666009 -2.255247 -1.2478098 -2.934227 -2.313285 -0.11571573

features.1.1.block.1.fc1.weight f4 [4, 16, 1, 1]
00000000: 36da 0b3b 5374 3abe 125a 763d a47e 90bd
00000010: f7d6 c73d 3f4e b63d 865a 053b 7f8a 17be
00000020: e9a3 0bbe b9f8 11bd bf69 1e3e e0df c8be
00000030: 6d43 8f3d 7022 9e3d 2732 16bd f434 833e
00000040: dc9a 03bc 28fd 6a3c 927c 1ebd cdbd 96be
00000050: 294a 373e ef77 46bf b3f7 90bd 8fc3 78be
00000060: 4127 f8bd f324 083d 687d 2b3f 0fb3 14bd
00000070: beb5 0f3d 75c6 4a3e 8d95 13be d59a b5be
00000080: 8408 273c 0a87 46be 4149 53bc 4985 25be
00000090: 8fcc f4bb d975 a33d 4630 d2bd c98d 10be
000000a0: 1c7c 3cbe dfcf 47be b012 dd3d 1ece ebbe
000000b0: e910 be3b 8caf e13c 2636 afbc 0d5d b53d
000000c0: e41d 313c 9563 37be 1396 84bd 065e 5fbe
000000d0: b06a c7bd b3ba 7f3d 5978 25be d84a e4bd
000000e0: 1a3d 4dbe 7601 99be e403 0a3b 00c8 f5be
000000f0: 307e 41bd c34a 8cbc 6d13 29bb d400 a4bd
0.002133978 -0.18208437 0.06014449 -0.07055405 0.09757798 0.08901643 0.0020348146 -0.14798926
-0.13636746 -0.03563759 0.15470026 -0.39233303 0.06995282 0.07721412 -0.036668923 0.25626338
-0.008032527 0.014342584 -0.03869302 -0.29441682 0.17899384 -0.77526754 -0.07078495 -0.2429335
-0.12116862 0.033238363 0.6698823 -0.036303576 0.035085432 0.19802268 -0.14412518 -0.3546969
0.010194901 -0.19387451 -0.012895883 -0.16164126 -0.0074706743 0.07981462 -0.10263114 -0.14116587
-0.18406719 -0.1951289 0.1079458 -0.46055692 0.0058003557 0.027549528 -0.021388125 0.08855639
0.010810349 -0.17909081 -0.06473937 -0.21813211 -0.09737146 0.06243391 -0.1615919 -0.11147088
-0.2004284 -0.29883927 0.0021059448 -0.4800415 -0.047239482 -0.017125493 -0.0025798932 -0.080079705

features.1.1.block.1.fc1.bias f4 [4]
00000000: ec9e a3bf eda7 aa40 9a05 c13f a93d 5d40
-1.2782874 5.3329988 1.5079834 3.4568884

features.1.1.block.1.fc2.weight f4 [16, 4, 1, 1]
00000000: a991 3c3b ec88 13b8 b7ad 993b 20e4 ac3b
00000010: b78b d43e 1fc0 0c3d 6a8f 0f3f 9087 283f
00000020: dbab fd3b 6815 f53e d578 b5bc cdea 17bd
00000030: e3e6 34bd 940e 9b3e c652 2abc fe16 d03c
00000040: 06e9 6a3d af2b a83e 08b1 833d 5dd0 653d
00000050: a090 23be 01b8 c83e a7c9 a2bd fede 9b3c
00000060: 85eb 93bc 9d25 bc3e d209 0ebd 7c4a 46bd
00000070: d53b 8abb 3125 1a3e 745d 9f3d a125 013e
00000080: 06c2 303e 2b03 be3e 6f76 c63d ffe3 aa3c
00000090: b8a2 0bbe f841 0e3e 22e4 ddbd 8df9 9bbd
000000a0: b65b 373c 3efb 853e e371 afbc c945 63bd
000000b0: b2d9 1f3f 3461 d13c 2594 193f 85c1 ff3e
000000c0: 6b8f 2bbe 1b89 823e 939c 95bd 919e 9b3c
000000d0: 0e0a 76bb 1485 ae3d 2626 48ba c1e2 bfba
000000e0: 4912 823d 383f a83e 2812 303d 25db 9e3c
000000f0: f943 703e 9387 143f b9a2 2c3d 6678 16be
0.0028773344 -3.517505e-05 0.004689898 0.005276218 0.41512844 0.03436291 0.5607821 0.6583185
0.007741434 0.47867894 -0.022152344 -0.037089158 -0.044165503 0.3028456 -0.010395711 0.025401589
0.057351135 0.32845828 0.064302504 0.056106914 -0.15973139 0.39202884 -0.079486184 0.01902723
-0.01805664 0.36747447 -0.034677334 -0.048410878 -0.0042185583 0.1505325 0.07781497 0.1261201
0.17261514 0.37111792 0.09690558 0.02086067 -0.13636291 0.13892353 -0.108345285 -0.076159574
0.011191299 0.26168245 -0.02141661 -0.055486474 0.6244155 0.025559045 0.59991676 0.4995233
-0.16753928 0.25495228 -0.07305255 0.018996509 -0.0037542614 0.085214764 -0.0007635079 -0.0014639721
0.06351144 0.32860732 0.042986065 0.019391606 0.2346343 0.5801937 0.042147372 -0.14694366

features.1.1.block.1.fc2.bias f4 [16]
00000000: 611e edbe 6cd6 ab3f 31d8 033f 4485 e83c
00000010: 464b 523f 8349 f5bf 562e c13f 50b3 833d
00000020: 1c3e 1dbf 0242 0940 2acb 883e bbcd 8a3f
00000030: 1576 6d3f 9201 3040 e932 253e aaf6 89bf
-0.4631224 1.3424811 0.51501757 0.028383859 0.8214611 -1.9163059 1.5092266 0.064306855
-0.61422896 2.1446538 0.26717502 1.0844034 0.92758304 2.7500958 0.16132702 -1.0778401

features.2.0.block.2.fc1.bias f4 [4]
00000000: b95b 2a3f b084 06bf 9975 ddbe 608e bd3e
0.6654621 -0.52546215 -0.43253782 0.37022686

features.2.1.block.2.fc1.bias f4 [6]
00000000: 9d97 1340 7b72 5d3f 1721 0940 1010 b73f
00000010: c58e 0540 7433 1d3f
2.3061287 0.8650281 2.1426446 1.4301777 2.086839 0.61406636

features.2.2.block.2.fc1.bias f4 [6]
00000000: 4240 9f3f 000b 0040 cd08 123f c894 cd3d
00000010: 86cd 8d3f 2538 903f
1.2441485 2.0006714 0.5704468 0.100381434 1.1078346 1.1267134

features.3.0.block.2.fc1.bias f4 [6]
00000000: 4a51 46bf 61b8 c2bd b448 b6be e32e 30bf
00000010: fd5d bcbe 83a3 e0bd
-0.7746779 -0.09507824 -0.35602343 -0.68821543 -0.36790457 -0.109686874

features.3.1.block.2.fc1.bias f4 [12]
00000000: f7af 963f 621b 763f b819 0a3f e68d b03f
00000010: a46a 9c3f 0d91 d33f 3fa6 873f 4bdc 4c3f
00000020: 67b0 703f ce95 b2bd b6cb 3bbf 0c82 823f
1.177245 0.9613553 0.53945494 1.3793304 1.2220044 1.6528641 1.0597609 0.8002364
0.9401917 -0.08719979 -0.73357713 1.0195937

features.3.2.block.2.fc1.bias f4 [12]
00000000: 4931 2f3f 7b6c 663f c126 1b3f cc32 7f3e
00000010: 381d 6c3f 1418 233f 768a 803f 8f9d 963f
00000020: 45cb b43f d357 913f da1f f43e 8754 b8be
0.6843458 0.9000928 0.6060601 0.24921721 0.92232084 0.63708615 1.0042255 1.1766833
1.4124533 1.1354927 0.4768055 -0.3600199

features.4.0.block.2.fc1.bias f4 [12]
00000000: ed86 29bf 9645 06be b360 83be 2aea 283f
00000010: 2cda 3c3d fb1c 00be cbaf 88be 88c0 f6bd
00000020: 48fe 09be 3b4d 9e3e 32f0 4bbe 9009 3cbe
-0.66221505 -0.13112482 -0.25659713 0.65982306 0.046106502 -0.12511055 -0.2669662 -0.12048441
-0.13475907 0.30918297 -0.19915846 -0.18363023

features.4.1.block.2.fc1.bias f4 [22]
00000000: ff33 6a3f 3626 693f aad4 483f ecc1 523f
00000010: 9bb3 003f ddaa 853f df69 673f 2737 843f
00000020: 9e41 393f a2fd 393f fb6d ac3e 9a14 7b3f
00000030: 0075 fd3e af7d 8f3f 6b65 f23e 871e 8d3f
00000040: 7bfa 9f3f 002b a63f cafd 333f 9cc4 a33f
00000050: 27fe 813f 5152 933f
0.9148559 0.9107393 0.784495 0.8232715 0.50274056 1.0442768 0.9039592 1.0329331
0.7236575 0.7265264 0.33677658 0.9807831 0.49503326 1.121023 0.47343 1.1024941
1.2498316 1.2981873 0.70309126 1.2794375 1.0155686 1.1509496

features.4.2.block.2.fc1.bias f4 [22]
00000000: 840f 7a3c 39cb 8d3e 59c4 553f f900 5a3f
00000010: 0f26 b43f f7c7 503f f86e 473f ccfa 663f
00000020: e342 ef3d 7b61 2d3e 68fe 6f3f cfa4 063f
00000030: 2b55 e83e e6c3 2c3f 3eea 993f 1db4 55bd
00000040: b13a a43f bbf2 a33f 2a9b 813e a12e 023f
00000050: 8757 823f ad30 fe3e
0.015262488 0.2769411 0.8350273 0.85157734 1.4074115 0.8155512 0.779037 0.90226436
0.116826795 0.16931717 0.9374757 0.5259523 0.45377478 0.6748642 1.202461 -0.052173723
1.2830411 1.280845 0.25313693 0.508524 1.0182961 0.49646512

features.4.3.block.2.fc1.bias f4 [22]
00000000: 7547 4b3f b546 a03f 91c0 863f bdc5 a03f
00000010: b67b 223f 05d3 7a3f 7f31 003f dae9 a93f
00000020: 4f4b 003f 4c8f 5f3f f6aa 0f3f c2ec 5b3f
00000030: 7168 9c3e be93 933f 293f d03e 6fa7 133f
00000040: 1e3c 723f d51f 323f 8274 3d3f 5875 b1bc
00000050: 6a75 a33e 536f a23f
0.7940591 1.2521578 1.0527517 1.2560345 0.6347002 0.9797824 0.50075525 1.3274491
0.5011491 0.8732803 0.5612024 0.8590814 0.30548432 1.1529462 0.40673187 0.5767736
0.9462298 0.6957982 0.740059 -0.0216624 0.31925517 1.2690223

features.5.0.block.2.fc1.bias f4 [22]
00000000: d3c3 8f3f 3742 453f 6615 773f 2817 973f
00000010: 4915 533f e7e2 923e 3760 babe 6636 bfbf
00000020: 2146 353f 9782 d03e 4fad 193f 7a66 10be
00000030: 3053 e53e faff 19be e99a 223e bd27 543f
00000040: 70fa 7b3f 6cb6 153d 5662 033f 1c15 063f
00000050: 859d bd3f 4ae9 cf3f
1.1231636 0.7705416 0.96517026 1.1803942 0.82454354 0.28688738 -0.3640153 -1.4938476
0.70810133 0.40724632 0.6003007 -0.14101592 0.4479003 -0.15039054 0.15879406 0.82873136
0.9842901 0.036550924 0.51321924 0.5237596 1.4813696 1.6243069

features.5.1.block.2.fc1.bias f4 [30]
00000000: 3631 9b3f 5d48 323f cdc1 713f 69ad 133f
00000010: 25c5 783f ff3d 9f3f 585a 2a3f ab8e 943f
00000020: cb0a f03f 3469 ab3f 905b 503f ac61 ad3f
00000030: 2b35 fc3f cc27 763f 623c af3f 1b53 943f
00000040: c3f5 983f ae19 1c3f df87 183f b0b6 923f
00000050: fe19 723f 2db3 073f 38d6 943f 1fef 803f
00000060: d47c 583e e17c 743f 8bbf 143f 049f 1c3f
00000070: e7ad 1d3f 7dba 473f
1.2124393 0.6964167 0.9443634 0.5768648 0.9717582 1.2440795 0.66544104 1.1606039
1.8753294 1.339148 0.81389713 1.3545432 1.9703726 0.96154475 1.3690302 1.1587862
1.195 0.60976684 0.5958232 1.1462002 0.9457091 0.53007776 1.1627874 1.0072974
0.21141368 0.9550305 0.5810477 0.6118014 0.6159348 0.78018934

features.5.2.block.2.fc1.bias f4 [30]
00000000: b37c 5d3f d51f 803f 422b 3a3f a3a1 343f
00000010: e145 5b3f 0722 5c3f a43e 723f 1a64 293f
00000020: cc05 863f 5a3e 3a3e c2d7 893e 5f95 d73e
00000030: daec f93e f646 1e3f 91c5 f73e 8de7 633e
00000040: f643 093f 3df8 073f bf23 123f d299 df3e
00000050: 8238 803f 4a4c 8e3f 2296 6b3f cdde 003f
00000060: 2c86 103f 46f5 c33e 3420 913e 3fda 893f
00000070: 76a8 9a3e 15bb 323f
0.865184 1.0009714 0.72722256 0.7055914 0.856535 0.8598942 0.9462683 0.6616837
1.0470519 0.18187848 0.26922423 0.4210615 0.48813516 0.6182703 0.4839292 0.22256298
0.53619325 0.53113157 0.57085794 0.43672043 1.0017245 1.1117032 0.9202596 0.50339967
0.5645473 0.38273066 0.28344882 1.0769728 0.3020665 0.69816715

features.5.3.block.2.fc1.bias f4 [30]
00000000: 3c82 3a3f 4c61 d43e 81d8 163f 6fc2 3a3f
00000010: c523 163f b6db 2f3f 3fdf c73e 81a0 913f
00000020: 1810 9d3f f97f 6f3f 4d66 613e 6644 573f
00000030: f219 9b3e a676 853f f0f5 433f c174 303f
00000040: 993d 713f ccda 7cbd 7618 ab3e 356d 153f
00000050: d3e5 923f 4f0c 583f 3a80 443f b303 5c3f
00000060: 4f68 aa3f e73c 4e3f 4b10 0b3f 2836 683f
00000070: b7f7 3a3f ea5c d53d
0.7285497 0.41480482 0.5892411 0.7295293 0.5864833 0.6869463 0.3903751 1.1377107
1.2270536 0.93554646 0.22011681 0.8408874 0.30293232 1.0426834 0.76547146 0.6892815
0.94234616 -0.0617321 0.334171 0.5836976 1.1476387 0.8439378 0.7675816 0.85943145
1.3313082 0.8056168 0.54321736 0.90707636 0.7303423 0.104181126

features.6.0.block.2.fc1.bias f4 [30]
00000000: e908 b8bc bef4 4dbf f13b cfbf a868 8dbf
00000010: 57e8 7f3f 7f38 783f 5bf4 a73e 0a7e a23d
00000020: d363 cd3f b20e 9f3e fc7f 393f eede b7bd
00000030: cc6c 983f fe7b f13f b0ad 09be 62d1 27be
00000040: 5317 dfbc 4dab 363f 8530 e53e 626c 8a3e
00000050: e691 67bf cc3b e03e 0431 9c3f aa3a 0f40
00000060: 6679 33bf b02c 6d3d 00a4 ba3f f665 b2be
00000070: 3616 2d3f a5ce 90bd
-0.022465186 -0.8045157 -1.6190168 -1.1047564 0.999639 0.96961206 0.32803616 0.07934196
1.6046089 0.310659 0.72460914 -0.08978067 1.1908202 1.8865964 -0.13445163 -0.16388467
-0.027232802 0.71355134 0.4476358 0.27035815 -0.90457 0.4379562 1.2202458 2.2379556
-0.70107114 0.057903945 1.4581299 -0.34843415 0.67612016 -0.07070664

features.6.1.block.2.fc1.bias f4 [52]
00000000: 3a54 a73e 478b be3e 40ac 343f d144 2c3e
00000010: 4242 f23e cd16 353e b7c5 f23e bda7 1d3d
00000020: 78ed 083f 06df e53e cfac 6e3e e5b3 78bd
00000030: a6aa f5be 1a19 3c3f f6be c63e 8923 cd3e
00000040: f9a3 b7bc 595f 783f cfa0 7cbd d025 a3bc
00000050: d353 323e d65c 523f 6e22 2c3e 327e 7cbd
00000060: 8c4e a13e 1f8c 6d3e 172a b13e 7df1 3a3f
00000070: 0c3f af3d 228a 523e 3a5d 81be c0e1 d43e
00000080: 55c6 e83c fa55 943e 5ffd ae3e 0b20 5a3e
00000090: 8ced 253f 9b44 893e cf63 cf3e e46b cabd
000000a0: 6b65 48bc 96d8 833b f32c 3e3f ce47 5e3e
000000b0: 23d7 6f3f 9dee b2bd 94c8 a83e 7d70 223f
000000c0: c463 593e 6667 2b3e e165 1e3e 7022 603d
0.32681447 0.37215635 0.7057533 0.16823126 0.47316176 0.17684479 0.4741647 0.038490046
0.5348735 0.44896716 0.23308109 -0.060718436 -0.47981757 0.734758 0.38817567 0.40066174
-0.022417055 0.9702049 -0.061676797 -0.019915491 0.17414789 0.82172906 0.16810009 -0.061643787
0.3150524 0.23197983 0.34602425 0.7302473 0.08556947 0.20560506 -0.2526644 0.41578484
0.028414885 0.28971845 0.34177682 0.21301286 0.6481559 0.26810154 0.40505835 -0.0988386
-0.012231211 0.004023622 0.7428734 0.21707079 0.9368765 -0.08736918 0.3296553 0.63452893
0.21229464 0.16738662 0.15468551 0.054720342

features.6.2.block.2.fc1.bias f4 [52]
00000000: 65ce 8b3e 57a0 9c3e e256 583f 0e26 0abe
00000010: 283c de3e 35af 383f 7b48 e13e 7ae4 c73e
00000020: d763 253f fe1b 973e 32b3 333d aef0 1a3f
00000030: 1e0a 613f 4158 083f 731a 963f 1e5f cb3e
00000040: 80a2 fa3e e41b a93f bc45 753f a8f3 303f
00000050: 255e 7e3e bb34 49be 845b e3bc d122 b43c
00000060: fe09 7e3e f353 fc3e 2a6b 853e 7436 9f3d
00000070: 8585 eebe ffbd 193f bb13 9d3e b62f 873e
00000080: 6e70 4b3f e045 1f3f 163f 353d f79b b2bd
00000090: 3651 cdbb 83a8 d83e c46b 143f c7a0 1b3f
000000a0: 3c9b fa3d d099 4c3e acbd 053f c717 b03e
000000b0: 9024 e33d 3f4e 843e 0f08 f43e 2a95 9c3d
000000c0: ce3d 403f c8cc a43e 1678 5d3f ef3b a43e
0.27305904 0.3059108 0.8450757 -0.13491079 0.4340527 0.72142345 0.4400061 0.390415
0.6460547 0.29513544 0.043872066 0.605235 0.8790606 0.53259665 1.1726822 0.39721006
0.48952103 1.3211637 0.9580953 0.6912179 0.24840601 -0.19649021 -0.027753599 0.021989258
0.24808499 0.49282798 0.26058322 0.07774058 -0.46586242 0.60055536 0.30679116 0.26403588
0.7946843 0.62215996 0.044249617 -0.08721154 -0.0062657846 0.42316064 0.5797694 0.607922
0.1223664 0.1998055 0.5224254 0.3439314 0.11090958 0.25840947 0.47662398 0.07645638
0.75094306 0.32187486 0.8651136 0.32076976

features.6.3.block.2.fc1.bias f4 [52]
00000000: 0a97 383f 2401 af3d 0b9c fc3e dea8 a63e
00000010: f3a5 6b3e ea43 6fbd 9437 213e ed5f d73e
00000020: 76b3 433e 9dae ce3e 28a0 e73e 17ed 7e3e
00000030: dc30 1c3d aebf d03e 60cb 9e3e f57b 8ebe
00000040: 2bb4 893c 5ca7 ad3e 2a21 c73e d6eb f83e
00000050: 47e9 f53e 5316 5a3f 508a 4c3e 3633 d63e
00000060: ff5b 593d 6fed 223f f396 4d3f 1f55 9f3f
00000070: b7c1 343e 7443 e83e 2646 853e 604c 0d3e
00000080: 184c 693f 194e d43e 11e0 5d3f 9c2a 693e
00000090: 0d29 143f b758 7ebc 249d 9a3e e865 c93e
000000a0: e9b8 893e 57e5 093f 5518 953f 84bd 6a3f
000000b0: a69a a43e 0136 e23e 7851 ef3e 6a51 09be
000000c0: 8652 783e c00d 673f 140c 483f 4eba e33e
0.7210547 0.085451394 0.493378 0.3255071 0.23012523 -0.058414377 0.15743858 0.42065373
0.19111428 0.40367594 0.45239377 0.2489513 0.038132533 0.4077124 0.31014538 -0.27828947
0.016809544 0.33916748 0.3889249 0.4861743 0.4802954 0.85190314 0.19974637 0.41835946
0.05306625 0.63643545 0.80308455 1.2447852 0.17652021 0.45363963 0.26030082 0.13798666
0.91131735 0.41465834 0.86670023 0.2277016 0.5787514 -0.015524081 0.30198014 0.3933556
0.26898888 0.5386557 1.164805 0.9169543 0.32149237 0.44181827 0.46741843 -0.13409963
0.2425023 0.90255356 0.7814343 0.44478077

features.6.4.block.2.fc1.bias f4 [52]
00000000: 7c3b d43f 8b76 653f 06bc 433f 0400 0a3f
00000010: e7d0 dabd afc7 2c3f 38c1 fb3e 3b3e 543d
00000020: 46a3 053f f087 d83d f4b4 493f 058c f93c
00000030: 9ebe c63e df14 dc3d a670 c83f b6c7 483f
00000040: 2c46 c53d 8a84 eb3c dbd0 e43e 1eee 06be
00000050: a2bc 9a3e 0289 ab3e c478 e23e c917 253f
00000060: 5cf5 873d afd6 393f 8fbf 3e3f 24e8 ad3f
00000070: 138f 463f 0660 e2be 43bd cb3a 2c6e 323f
00000080: d654 293f 17f8 143f c0ea 323e 0ae2 f03e
00000090: 4361 7ebe bc63 8bbd 1200 643d 1753 f33e
000000a0: 6fb5 f83e 68b3 f13d 602d 583e 1111 033f
000000b0: b365 013e d8a3 ee3e 778c d93e a047 ed3e
000000c0: 35ea bb3e 0dc0 d33e 33e1 563f 9b71 e13e
1.6580653 0.8963401 0.76458776 0.53906274 -0.10684376 0.67492193 0.49170852 0.05181716
0.5220226 0.10572803 0.7879174 0.030462274 0.38817304 0.10746168 1.5659378 0.78429735
0.09632525 0.028749723 0.44690594 -0.13176772 0.3022204 0.33502966 0.44232762 0.6448942
0.066385955 0.72593206 0.74511045 1.3586469 0.77562064 -0.44213885 0.0015544075 0.6969936
0.66145074 0.58191055 0.17472363 0.47047454 -0.2484179 -0.06806132 0.05566413 0.4752433
0.48575923 0.11801797 0.21111059 0.51197916 0.12636451 0.46609378 0.4248998 0.46343708
0.36702123 0.4135746 0.83937377 0.44031987

features.7.0.block.2.fc1.bias f4 [52]
00000000: cb7e febe 8a73 c5bf bc69 5abf d6ae 77bf
00000010: 6482 dcbf 6244 1fbf ff19 cebe c23c b6be
00000020: 6972 9abf a9aa 9bbf fb02 0dbe 4c3f 7dbe
00000030: e7f8 3dbf a385 ce3c 678f bebf 68f8 a3bf
00000040: 2394 a2bf 45e2 23bf 7cb6 81bf 2ad7 d0bf
00000050: 2fa4 21bf 4bf7 333f 1815 67bf a9ca e8be
00000060: be30 a2be 88a8 3cbf 9374 7bbf 9eb3 cb3d
00000070: 9072 853e d364 d9bd 6e23 0dbf 695d cfbe
00000080: ac3b 79bf 1980 67bf 45ed abbf 9c6d cdbf
00000090: d1ff 3abf 4978 32bf fb6a a1bf bdf2 9ebf
000000a0: 9f13 55bd 7467 17bf 0b08 00bf 5d86 d6be
000000b0: ab33 fbbf dbf8 e7be 4528 01bf e256 c1bf
000000c0: 0f67 3840 42a3 f8bf 603a 14bf e2f9 80bf
-0.4970611 -1.5425885 -0.8531759 -0.96751153 -1.7227292 -0.6221372 -0.40254208 -0.3559323
-1.2066165 -1.2161456 -0.13770668 -0.24731177 -0.7420792 0.025210207 -1.4887513 -1.2810183
-1.2701458 -0.64017135 -1.0133815 -1.6315663 -0.6314115 0.70299214 -0.9026656 -0.45467117
-0.31677812 -0.7369466 -0.98224753 0.09946369 0.26063967 -0.10614934 -0.55132186 -0.40500954
-0.9735668 -0.90429837 -1.3431784 -1.6049075 -0.73046595 -0.6971479 -1.2610773 -1.2417828
-0.052020665 -0.5914223 -0.5001227 -0.41899386 -1.9625143 -0.4530705 -0.5045207 -1.510464
2.8812902 -1.9424822 -0.57901573 -1.0076258

classifier.1.bias f4 [3]
00000000: b8cb 873c 94f1 13bd 67a0 4dba
0.016576633 -0.03611906 -0.0007844031

features.0.0.weight_bias f4 [32]
00000000: 74f7 b93e aaa0 f53f 90e3 0941 48b8 ec3f
00000010: 0203 ef40 7b07 89bf 05d4 f23f 3712 2540
00000020: 5ff5 893f 5179 18c0 6155 2c41 263a 73c0
00000030: 7075 f03f 6687 2b40 21d0 1ac1 10ab 1040
00000040: e9d9 263f 115a 2ac0 8fc5 903e e837 e440
00000050: 3494 c4bf 5835 f13f 3629 fb3f d701 11c1
00000060: 9757 84c0 c1bf ee3f 4ce3 a3bf 7825 0841
00000070: 1c3e f33f 4c94 0ebe c683 7dc0 98ee 933f
0.36321604 1.9189656 8.618057 1.8493738 7.469117 -1.0705408 1.8970953 2.5792367
1.0778006 -2.3824046 10.770844 -3.800424 1.8785839 2.680139 -9.675813 2.2604408
0.65176255 -2.6617472 0.28275725 7.1318245 -1.5357728 1.8844404 1.9621952 -9.062949
-4.135692 1.8652269 -1.280374 8.509148 1.9003329 -0.13923758 -3.9611678 1.1557188

features.1.0.block.0.0.weight_bias f4 [32]
00000000: 545c ab3e 650b 7440 021b 2140 c6d4 9040
00000010: 9e8e f340 7af8 8c3f df97 8940 00d8 263c
00000020: 7f94 a440 80d5 6c3c f18c 3740 f308 463e
00000030: 8d09 4c40 d0e4 043f 4e10 9abf 3080 adbe
00000040: 8558 0541 3d53 46c0 f6ad 2e3f 51f4 11c0
00000050: 3a32 1d40 a3b3 1e40 75e3 2c40 dcbc 13c0
00000060: 26f2 0b3f debf 5340 127d 7abf 9a3d c93f
00000070: 5630 5640 a1cc f03f d0cf 563f 2644 8340
0.33468878 3.8131955 2.5172734 4.5259733 7.6111593 1.1013329 4.299789 0.010183334
5.143127 0.014455199 2.8679774 0.19339351 3.188083 0.5191164 -1.2036226 -0.33886862
8.334111 -3.0988305 0.68234193 -2.280537 2.4561906 2.4797142 2.7013829 -2.308402
0.54666364 3.3085856 -0.9784709 1.5721924 3.3467002 1.8812448 0.83910847 4.102069

features.1.0.block.2.0.weight_bias f4 [16]
00000000: 5e15 b5bd 7231 a0c1 39e1 7741 67db 43c0
00000010: fa92 00c1 5fd7 acc0 0a2a 02bf 6830 8ebf
00000020: 40f8 1ac0 79d5 2541 82ac 79c1 e3f9 6cc1
00000030: 8757 44c1 c2df c8c1 04b4 9cc1 87c6 4e40
-0.08841966 -20.024143 15.492486 -3.0602663 -8.035883 -5.4012904 -0.50845397 -1.1108522
-2.421402 10.364617 -15.604616 -14.8110075 -12.271369 -25.109257 -19.587898 3.2308671

features.1.1.block.0.0.weight_bias f4 [16]
00000000: b6a4 a3bf 25db a640 0eb2 2640 618d f03f
00000010: dbd3 2840 e2dd ee3f 88ab 2240 2858 3b40
00000020: 75ee 0840 cf7f 1640 6172 9ebf b63e 8a40
00000030: 393e 2a40 f17c 4140 f4ff 2ac0 e4f2 e63f
-1.2784641 5.214251 2.6046176 1.8793145 2.6379306 1.8661463 2.5417194 2.9272556
2.1395543 2.3515508 -1.2378656 4.320155 2.6600478 3.0232508 -2.6718721 1.8042874

features.1.1.block.2.0.weight_bias f4 [16]
00000000: 801c aabe e600 37c1 09e4 fe40 b291 e6c0
00000010: 8cfe be40 8e1e 7b40 4ac0 57c0 307e 033f
00000020: 20a8 e33f 8a22 3340 85cf 813f 55c1 1cc1
00000030: 4c34 edc0 c406 c5c0 a184 73c0 cba3 b8c0
-0.3322487 -11.437719 7.9653363 -7.205285 5.9685726 3.92374 -3.3711114 0.5136442
1.7785683 2.798983 1.0141455 -9.7972 -7.412634 -6.157076 -3.80497 -5.7699943

features.2.0.block.3.0.weight_bias f4 [24]
00000000: c230 c83f 4177 0cc1 2070 93c0 b96c 2f3f
00000010: 15f3 86c0 254d 993f 92db 9b41 2653 9441
00000020: fb83 9b40 0d10 1041 d0d7 923f 1461 9bc1
00000030: af1a adc0 eece 7b41 3ae7 ae40 e2b4 9040
00000040: 4c83 2942 7196 85c0 519d 0ac1 c57e 3dc1
00000050: c13a 2b41 392b d840 5a18 0541 e422 483f
1.563988 -8.779115 -4.607437 0.6852527 -4.217173 1.1976668 19.482212 18.5406
4.859861 9.003919 1.1472111 -19.422401 -5.4095073 15.73802 5.465726 4.5220804
42.37822 -4.1746144 -8.663407 -11.84345 10.701844 6.755276 8.318445 0.7817824

features.2.1.block.3.0.weight_bias f4 [24]
00000000: f383 e5c0 80b5 79bf 1cc1 b1be 1690 853e
00000010: acb5 09c1 8e7b 113f 67b1 edbf 66b5 86c0
00000020: ed0a 70c0 d6df 8ac0 166c 83bf 0f64 84c0
00000030: 7266 233f 8294 9ac0 ed5c 8b40 1013 20bf
00000040: c214 dcc0 37db 0040 750f 5dc0 18b8 e13e
00000050: 71e8 8740 ddb9 ff40 7286 cbc0 7000 1f3e
-7.172357 -0.9754257 -0.34717643 0.2608649 -8.6068535 0.56829154 -1.8569764 -4.2096434
-3.7506669 -4.3398237 -1.026736 -4.137214 0.63828194 -4.8306284 4.3550935 -0.6252909
-6.877534 2.0133798 -3.4540684 0.44085765 4.247124 7.9914384 -6.360162 0.1552751

features.2.2.block.3.0.weight_bias f4 [24]
00000000: 2480 d23f 5516 0ac0 f419 d5be fa26 93be
00000010: ecb4 0640 c05a febd 02d6 d4bf 4fad 8440
00000020: d0fe 1740 b811 64bd a6be ffbf 69ae 0241
00000030: 1103 4dbf 6a5b fec0 88f3 643e c4cf 24c0
00000040: 5e83 9540 bbde a23f 9c80 d840 8f3b 2ec0
00000050: b49c 353f 7583 f1c0 2079 c9bd 7b51 ab3f
1.6445355 -2.157613 -0.41621363 -0.28740674 2.1047926 -0.12419653 -1.662781 4.146156
2.3749275 -0.05568096 -1.9980056 8.167581 -0.80082804 -7.948659 0.22358525 -2.575181
4.672286 1.2724222 6.7656994 -2.7223852 0.70942235 -7.547297 -0.09837556 1.3384241

features.3.0.block.3.0.weight_bias f4 [48]
00000000: 474d 52c1 b55c 6ac1 82fb f941 6054 3bc0
00000010: 9369 ee40 b044 d140 200b 00c1 fced 7b40
00000020: 036d e0c0 6918 da40 9f49 b2bf e311 573f
00000030: 0a16 1dbf 5d28 b83f 570c 3bc1 b31b ec40
00000040: f4b8 a7c1 2e89 f4bf 7d5f 5ac1 ca4e 8540
00000050: f2db 5441 3170 8c40 9747 03c0 4ff4 eb41
00000060: 659d 0dc0 ac9b 0cc1 d402 0241 ce8e 8141
00000070: 89ca 64c1 8adf 0841 9968 c9bf c6fd c43f
00000080: c4f9 12c1 f78b b2c0 08b2 bec0 db2c c140
00000090: c193 24c0 7ba0 b140 c628 8fc1 f338 1741
000000a0: 82e5 0dc1 d33e b2c0 dbb3 5e40 966a 4c41
000000b0: 279f a4c1 5340 8abe 095b 343f 6c4b 81c0
-13.143867 -14.647634 31.247807 -2.9270248 7.4503875 6.5396347 -8.002716 3.9364004
-7.013307 6.8154798 -1.3928717 0.8401167 -0.61361754 1.4387318 -11.690513 7.3783813
-20.96531 -1.9104364 -13.648313 4.165868 13.303698 4.3886952 -2.0512445 29.494291
-2.2127316 -8.788006 8.12569 16.194729 -14.299447 8.554575 -1.5735046 1.5389946
-9.185978 -5.5795856 -5.9592323 6.0367255 -2.5715182 5.55084 -17.894909 9.451404
-8.868532 -5.570169 3.4797275 12.776022 -20.577711 -0.270022 0.7045141 -4.040457

features.3.1.block.3.0.weight_bias f4 [48]
00000000: 80c2 b73f 1d82 cf3f fe96 2fc0 a84e b0bf
00000010: 387f 3bbe 3487 eb3f 20d2 72bd a104 9cbf
00000020: bde6 433f e75f 4f40 5e55 8a40 283d 083f
00000030: 2674 14bf dd7f c3bf 342e 0340 fc56 92bf
00000040: 5ad1 30bf 7a1e f83e d689 8bbf db0f 3740
00000050: 26c9 273f ec8e aa3e 60a3 503c f332 0940
00000060: 6159 5cbf b45b 8bbe 76da f4bd e0a9 f33f
00000070: 28c2 073f f2aa 6ac0 a43c dd40 85d1 6ebf
00000080: 7271 6e40 9853 64c0 d0f0 dc3f 6609 8b3f
00000090: 6087 4d40 f6a2 08c0 83b0 15bf db37 6840
000000a0: 6b74 c83f 275f 44bf 78fb 9c3f c37c bfbf
000000b0: f078 90c0 a046 f6bf 6cc1 2a40 a21c 8dbf
1.4356232 1.6211582 -2.7435908 -1.3774004 -0.18310249 1.8400636 -0.059282422 -1.2188913
0.76523954 3.2402284 4.322921 0.5321832 -0.5798973 -1.5273396 2.049695 -1.1432796
-0.69069445 0.48460752 -1.0901439 2.8603427 0.65541303 0.33312166 0.012734264 2.1437347
-0.8607388 -0.272184 -0.119557306 1.9036217 0.53030634 -3.6666837 6.9136524 -0.9328845
3.7256742 -3.5676022 1.726099 1.0862243 3.2113876 -2.1349463 -0.5847246 3.6284091
1.5660528 -0.7670769 1.2264242 -1.4959949 -4.514763 -1.9240303 2.6680555 -1.1024363

features.3.2.block.3.0.weight_bias f4 [48]
00000000: 6117 953f 48ae 5c3e e099 11bf 86cb bebe
00000010: 3a1f bbbf cd00 1040 fcdb f23f ae11 1dbf
00000020: f85b a13d 403c b9bd f6e0 5ec0 4dba bfbe
00000030: 53ee bd3e da09 153f 68c9 8e40 51ee f1bd
00000040: 6c2b 63be e6e0 0d40 141a 5e3f 74ed 94be
00000050: 1b45 933e 3a0d 663f 2852 4a40 8a91 c13f
00000060: 7205 993f 8ab5 1abf 9e78 713e 2eed 9fbe
00000070: ecf2 be3d 787f 5ec0 dee2 9840 2313 88be
00000080: bbbc fe3e 24b5 2540 36f2 0b40 76be 4ebf
00000090: 9f1a 1f40 fdad 6bbf 8401 31bf 4bb7 d23e
000000a0: 08f2 583f ffbe 2a3d f300 bcbe dbf8 333f
000000b0: b8f4 80bf 42f2 1040 1195 9f3f ac4f 123f
1.164776 0.21550858 -0.5687542 -0.3726465 -1.4618905 2.2500489 1.8973384 -0.613551
0.0787887 -0.09044695 -3.4824805 -0.37446824 0.3709589 0.5821816 4.4620857 -0.11813033
-0.22184533 2.2168517 0.8675854 -0.29087412 0.2876366 0.8986393 3.1612644 1.512254
1.1954787 -0.60433257 0.23581168 -0.3123564 0.093236774 -3.47653 4.7776937 -0.265771
0.49753365 2.589181 2.1866584 -0.8075937 2.4859998 -0.9206236 -0.6914294 0.41155466
0.8474431 0.041686054 -0.36719474 0.703016 -1.0074682 2.2647862 1.2467366 0.5715282
