Freshness/gill_freshness.onnx (onnx, 863946 bytes, 38 tensors)

features.1.0.block.1.fc1.bias f4 [8]
00000000: 35f2 773e 2214 e1bf 4d65 00c0 6127 0fc0
00000010: ddac 59be 0cdc aabf ef72 02bf 05ee 9cbf
0.24213488 -1.7584269 -2.006183 -2.2367785 -0.21257348 -1.3348403 -0.50956625 -1.2260138

features.1.0.block.1.fc2.bias f4 [32]
00000000: ba1d 28c0 f384 d0bf 499a 11c0 dccd 87be
00000010: c531 b13d c9f8 cd3d 9ff8 bc3e d198 3ac0
00000020: fadb 09c0 4c4b 5bbf 554c 09c0 8a1b 3bbe
00000030: 03ed f4bf b245 30c0 6708 95be 6ee0 e9bf
00000040: a132 d4bf 8075 f8bf 7195 20c0 7014 04c0
00000050: 6402 fdbf 0b92 a2bf c353 133f 5a1b 03c0
00000060: f300 46c0 de87 38bf 8873 41bf 535c 11c0
00000070: 6b83 9bbf da59 3cc0 e019 13c0 7914 01be
-2.6268144 -1.6290573 -2.2750418 -0.26524246 0.08652071 0.10057218 0.36908433 -2.9155772
-2.1540513 -0.8566177 -2.145284 -0.18272224 -1.913483 -2.7542539 -0.29107973 -1.8271616
-1.6577951 -1.9410858 -2.5091212 -2.0637474 -1.9766355 -1.2700819 0.57549685 -2.0485444
-3.093808 -0.72082317 -0.7556691 -2.27126 -1.214948 -2.942984 -2.2984543 -0.12605466

features.1.1.block.1.fc1.weight f4 [4, 16, 1, 1]
00000000: 392f 72bb 7052 23be 6817 803d 8605 8bbd
00000010: 3fae ca3d 6223 b83d c78f c8bb 58ac 0fbe
00000020: c188 16be 7be9 46bd e5e8 303e f54e bdbe
00000030: cba1 933d 1bdf 8c3d d81e 4bbd c369 823e
00000040: ede8 b0bb 9d7d d03b 6323 1ebd dce9 96be
00000050: b6dc 373e 0796 44bf 1372 96bd 7ce0 7abe
00000060: bd09 fcbd c265 0d3d 7718 293f fbab 37bd
00000070: 73f0 0c3d d73f 443e 3113 17be 9b42 b2be
00000080: a93a 3a3b 148f 2ebe eb9a 2bbc 30a6 23be
00000090: 2e4a d2bb 97a9 a03d 5909 e9bd a2ac 07be
000000a0: c390 4cbe ec14 5abe d734 f43d a0c6 dfbe
000000b0: 4c6a fb3b d74a b03c 94ec 28bd 4a4b ad3d
000000c0: ec38 0e3c 7d44 1fbe e007 8cbd b44a 62be
000000d0: 79cb d1bd 85b9 5e3d a960 39be a990 e0bd
000000e0: f692 64be e020 a7be 1990 023c e644 e9be
000000f0: e39a 54bd dc13 bcbc 7fc9 f2bc 72c3 b9bd
-0.0036954416 -0.15949416 0.062544644 -0.06788163 0.09896516 0.08991124 -0.006120655 -0.14030588
-0.14700605 -0.048562508 0.17276342 -0.36974302 0.07208594 0.068784915 -0.04958996 0.25471315
-0.0053988607 0.0063626305 -0.038607966 -0.29475296 0.17955288 -0.76791424 -0.07345977 -0.24499696
-0.12306545 0.034520872 0.66052955 -0.044841748 0.034408998 0.19164978 -0.14753415 -0.3481644
0.0028416312 -0.17046767 -0.010473947 -0.15981364 -0.0064175343 0.07844847 -0.11378736 -0.13249448
-0.19977097 -0.21297044 0.11924141 -0.43706226 0.0076725837 0.021520061 -0.041241243 0.08461626
0.008680563 -0.1555347 -0.068374395 -0.2209881 -0.102438875 0.054376144 -0.18103279 -0.10965092
-0.22321686 -0.3264227 0.007968926 -0.45560378 -0.051905524 -0.022958688 -0.029637096 -0.09070481

features.1.1.block.1.fc1.bias f4 [4]
00000000: 96d3 a2bf d985 aa40 6de7 c13f b94e 5d40
-1.2720821 5.328839 1.514875 3.4579298

features.1.1.block.1.fc2.weight f4 [16, 4, 1, 1]
00000000: 1953 bab9 d289 15ba 735e e5b9 657e 19ba
00000010: af46 c43e f995 a33c 35f0 073f db94 213f
00000020: 92ba b23c 47e9 f03e 1daa 05bc 8c38 b5bc
00000030: 841d 45bd ce5c 903e 2833 2dbc ad7f f03c
00000040: 2e62 463d 72f9 9d3e 02f8 5e3d b4b1 3a3d
00000050: bc8e 26be 3673 cf3e f425 aebd 1d17 383c
00000060: 1be1 cebc 4e4e cb3e 14de 2dbd b8b7 65bd
00000070: 498e 3dbc 62fe 0a3e d68e 903d 4f51 f43d
00000080: 68cf 323e bc5e b93e d18c ca3d 861f b53c
00000090: d4cb dcbd bcf0 173e d948 abbd bc71 60bd
000000a0: 3e12 a43c 5eb1 863e 0265 63bc 4857 4bbd
000000b0: 94f9 163f a958 273c 04e9 113f 44d6 f33e
000000c0: 9c5c 37be 441d 863e bfbb b2bd a345 d63a
000000d0: e0c4 c73b ddd3 883d 9385 423c 2767 603c
000000e0: b004 6d3d ede3 b53e 11ed 0e3d dad3 153c
000000f0: d405 5b3e 6095 113f 9430 c23c 5cec 25be
-0.00035538597 -0.0005704436 -0.00043748654 -0.0005855321 0.38335177 0.019968973 0.531009 0.6311776
0.02181748 0.47052976 -0.008158234 -0.02212169 -0.04812385 0.28195804 -0.010571279 0.029357756
0.048433475 0.30854374 0.054435737 0.045579627 -0.16265386 0.40517586 -0.08503333 0.011235979
-0.025253823 0.3970818 -0.04244812 -0.05608341 -0.011569568 0.13573602 0.07058494 0.11929571
0.17461932 0.3620509 0.0989014 0.022109758 -0.10781065 0.14837927 -0.08363504 -0.054795966
0.02002823 0.26307195 -0.013879063 -0.049643785 0.58974576 0.010214009 0.5699618 0.4762441
-0.17906421 0.26194203 -0.08727216 0.0016347658 0.0060964674 0.06681035 0.011872667 0.013696468
0.0578658 0.35525456 0.034894053 0.009144748 0.21388942 0.56868553 0.023704804 -0.16203445

features.1.1.block.1.fc2.bias f4 [16]
00000000: 846e e2be aec9 ac3f 22c6 fd3e ee69 ae3c
00000010: 6584 553f e210 f4bf f84e c33f a95d 893d
00000020: 0559 1dbf 85fb 0740 172e 883e a73d 8c3f
00000030: 875f 733f e313 3040 cba2 2b3e 54ce 88bf
-0.44224942 1.3499048 0.49565226 0.021290746 0.83405143 -1.9067652 1.5258474 0.067073174
-0.6146396 2.1247265 0.26597664 1.0956315 0.9506764 2.7512138 0.1676132 -1.0687966

features.2.0.block.2.fc1.bias f4 [4]
00000000: 0309 313f aea9 06bf d2e2 d8be 1a09 bb3e
0.69154376 -0.5260266 -0.4236055 0.3653038

features.2.1.block.2.fc1.bias f4 [6]
00000000: 966d 1340 f93d 5e3f c404 0940 2dd4 b63f
00000010: 0019 0540 c4c5 1d3f
2.3035636 0.8681331 2.1409159 1.4283501 2.0796509 0.6162989

features.2.2.block.2.fc1.bias f4 [6]
00000000: acaf 9c3f d14d 0040 825f 123f 0b0d a03d
00000010: be4a 8c3f 7009 913f
1.2241111 2.0047495 0.57176983 0.07814988 1.096031 1.1331005

features.3.0.block.2.fc1.bias f4 [6]
00000000: 92d2 46bf 7905 c6bd 565e b7be 0ca5 2fbf
00000010: 592a bebe 0321 e5bd
-0.77665055 -0.096690126 -0.3581416 -0.68611217 -0.37141684 -0.11187937

features.3.1.block.2.fc1.bias f4 [12]
00000000: 52c5 983f 16d9 723f 1ec2 0a3f 54f1 b03f
00000010: da69 9d3f 2853 d53f f45b 873f eaa6 4e3f
00000020: ed25 6e3f 7360 b3bd c0cd 3bbf 138a 833f
1.1935217 0.94862497 0.5420245 1.3823647 1.2297928 1.6666002 1.0574937 0.8072344
0.9302662 -0.087586306 -0.73360825 1.0276512

features.3.2.block.2.fc1.bias f4 [12]
00000000: 78bf 2f3f 1f8e 643f e669 1c3f 7c0b 793e
00000010: 54c0 6d3f eb62 243f 40ae 813f 3b1c 963f
00000020: a548 b33f 5435 903f 5250 f13e a55d bcbe
0.68651533 0.8927936 0.6109909 0.24320787 0.92871594 0.64213437 1.0131302 1.1727365
1.4006544 1.1266274 0.47131592 -0.36790195

features.4.0.block.2.fc1.bias f4 [12]
00000000: 1e57 2abf 4dd6 05be d62f 83be e69a 283f
00000010: 145d 433d bd97 febd 3bc3 85be 63c6 efbd
00000020: 8c27 07be b250 9e3e 9302 4dbe 38a7 39be
-0.6653918 -0.1307003 -0.25622433 0.65861356 0.047696188 -0.124312855 -0.26125512 -0.11707761
-0.1319868 0.3092094 -0.20020513 -0.18130195

features.4.1.block.2.fc1.bias f4 [22]
00000000: 27a3 673f 6194 693f e525 473f 5e8b 533f
00000010: 9250 013f db66 843f accd 693f 94f9 833f
00000020: c6f6 383f a15b 3c3f 3b84 b03e 3888 7a3f
00000030: 1980 fb3e d58b 8f3f 2f75 ef3e 8480 8d3f
00000040: a320 a03f 9400 a73f baec 323f bfa6 a23f
00000050: 954f 813f 9b05 943f
0.90483326 0.91242033 0.777922 0.8263453 0.50513566 1.0343889 0.91329455 1.031054
0.72251546 0.73577315 0.34475884 0.97864103 0.49121168 1.1214548 0.4676909 1.1054845
1.250996 1.3047051 0.69892466 1.2707137 1.0102412 1.1564211

features.4.2.block.2.fc1.bias f4 [22]
00000000: 581f 863c 2439 903e 3b75 543f 1a46 5b3f
00000010: 82bc b43f b43c 503f 662e 463f 9037 663f
00000020: f87a 053e 844e 423e 5783 6f3f ee26 063f
00000030: 371f ec3e 2e63 2b3f dbba 973f 0931 82bd
00000040: dc24 a23f d3bd a43f a1dc 7a3e fa59 003f
00000050: 1ce1 813f d501 fc3e
0.016372368 0.28168595 0.8299138 0.8565384 1.4120028 0.81342626 0.7741455 0.8992853
0.1303519 0.18975264 0.93559784 0.5240315 0.46117565 0.6694821 1.1853899 -0.06357009
1.2667499 1.287043 0.24498226 0.50137293 1.0146823 0.49220148

features.4.3.block.2.fc1.bias f4 [22]
00000000: 7ebc 4c3f 295b a13f 379b 883f 5748 a23f
00000010: e2e9 1f3f 3223 7a3f 4429 033f a512 a83f
00000020: 57b1 fe3e 572d 5e3f 8bbd 0f3f 536f 5c3f
00000030: 0210 9c3e 0829 933f 6d69 d33e 66dc 123f
00000040: ce47 6f3f 3e93 353f f17d 3c3f 83fa 19bd
00000050: 420b a53e aa05 a33f
0.79975116 1.2605945 1.0672368 1.2678326 0.6246625 0.97709954 0.5123484 1.313069
0.49744675 0.86787933 0.56148595 0.8610737 0.30480963 1.1496897 0.4129137 0.5736755
0.9346894 0.709278 0.7362967 -0.037592422 0.32235152 1.2736104

features.5.0.block.2.fc1.bias f4 [22]
00000000: 4f20 903f 05ed 453f 7d3c 783f 0114 963f
00000010: f9dc 513f cf89 923e 87fc b4be df2f bbbf
00000020: fcab 343f 7434 d13e b719 183f fb27 00be
00000030: 8519 e33e 44a1 1cbe 011b 2f3e 1680 543f
00000040: f152 7d3f ca86 203d afc5 003f 5e91 073f
00000050: 4abd bd3f 899d cf3f
1.125986 0.7731479 0.969673 1.1724855 0.819778 0.28620765 -0.35348913 -1.4623984
0.7057493 0.4086033 0.5941424 -0.12515251 0.44355407 -0.15295893 0.17100145 0.83007944
0.98954684 0.039191045 0.5030164 0.5295619 1.4823391 1.6219951

features.5.1.block.2.fc1.bias f4 [30]
00000000: 3c33 9b3f 63cc 333f eb91 723f 1b9a 153f
00000010: 7ec2 793f e55a 9f3f 2bb4 293f 702a 943f
00000020: 392d ef3f ad6b aa3f 7a40 4e3f 86c7 ac3f
00000030: 3e18 fb3f a2f8 773f ecbd b03f b8a6 943f
00000040: 4d78 993f 2d4a 1c3f 8c10 183f 1180 923f
00000050: 6f10 713f 1732 063f 6fdf 943f e1c3 7e3f
00000060: 83b6 4d3e 6b55 743f 46de 133f deec 1d3f
00000070: 679f 1c3f af5c 483f
1.212501 0.70233744 0.94753903 0.5843827 0.97562397 1.2449614 0.6629054 1.1575451
1.8685676 1.331411 0.80567133 1.349839 1.9616773 0.9686376 1.380796 1.1613379
1.1989838 0.61050683 0.5940025 1.1445333 0.941657 0.5242018 1.1630687 0.9951764
0.20089154 0.9544284 0.5776104 0.61689556 0.6118073 0.78266424

features.5.2.block.2.fc1.bias f4 [30]
00000000: 8668 5f3f 3e56 803f ad23 3b3f 5270 353f
00000010: 0b7d 5b3f 2a20 5b3f c7ab 713f 2a40 2a3f
00000020: 6641 863f 7662 353e 084a 8d3e e24a dd3e
00000030: 10f8 fd3e 796c 213f db0e fa3e f9e4 673e
00000040: 4752 0b3f 14cd 073f 41b5 153f 49dd e13e
00000050: db9d 7f3f cea6 8e3f b444 6c3f 882c 043f
00000060: ad89 103f 7d62 c43e 880d 953e 6c12 8b3f
00000070: 867c 9c3e fc44 323f
0.87268865 1.0026319 0.7310131 0.7087451 0.85737675 0.85595953 0.94402736 0.66504157
1.0488708 0.17713341 0.27595544 0.43221194 0.4960332 0.6305614 0.4883946 0.2264594
0.5442242 0.530473 0.58479697 0.4411414 0.99850243 1.1144655 0.9229233 0.5163045
0.56460077 0.3835639 0.29111886 1.0864997 0.30563754 0.6963651

features.5.3.block.2.fc1.bias f4 [30]
00000000: 51aa 3a3f 9eba d33e 5d13 173f ce88 3d3f
00000010: 48dc 163f a48b 2b3f 20ea cc3e 5cab 913f
00000020: 3565 9f3f ce6c 703f 9bb9 6c3e b92b 543f
00000030: 4bd6 983e e436 843f 03e9 433f 36ee 303f
00000040: 2913 733f ecce 85bd 45a9 b03e 0319 143f
00000050: c926 933f fd50 563f 9b75 473f 137a 5c3f
00000060: a820 a93f 277c 4f3f 67e3 0a3f 3233 673f
00000070: 4e8c 3b3f e07f c23d
0.7291613 0.41353315 0.5901392 0.7403687 0.5892987 0.6700995 0.40022373 1.138042
1.2452761 0.9391602 0.23117678 0.82879215 0.29850993 1.0329251 0.7652742 0.6911348
0.9495111 -0.06533608 0.34504142 0.57850665 1.1496211 0.8371733 0.77913827 0.8612377
1.3213091 0.81048816 0.5425324 0.9031249 0.7326096 0.094970465

features.6.0.block.2.fc1.bias f4 [30]
00000000: daef 68bc 6d9a 4cbf c708 cfbf 47c0 8cbf
00000010: 5ff3 7f3f 3695 783f c113 a83e b486 af3d
00000020: 5568 ce3f d3ed 9f3e 75cf 3c3f f570 aabd
00000030: aea1 983f 9666 f13f 3fec 18be 6739 29be
00000040: ca7d a5bc c558 373f 6e1f e93e 95f4 8a3e
00000050: c852 64bf cef9 e43e 61c0 9c3f 6a37 0f40
00000060: 15e0 32bf a678 883d f37e ba3f 9556 b1be
00000070: 6a95 2d3f 9e98 90bd
-0.014217341 -0.79923135 -1.6174554 -1.0996178 0.9998073 0.9710268 0.3282757 0.085706145
1.612559 0.31236133 0.73754054 -0.08322326 1.1924341 1.8859432 -0.1493387 -0.16525804
-0.020201582 0.71619827 0.4553179 0.27139726 -0.89188814 0.44721836 1.2246209 2.2377572
-0.6987317 0.06663637 1.4569992 -0.3463637 0.6780611 -0.070603594

features.6.1.block.2.fc1.bias f4 [52]
00000000: db77 a33e 4066 bd3e 560c 333f 1247 323e
00000010: 5cd1 ed3e 552a 3a3e edc6 f43e beda 473d
00000020: 6eda 083f 2386 e73e 5ba9 713e b6f5 7abd
00000030: 2055 f6be 3f79 3a3f 0613 c63e df12 d63e
00000040: ea80 ddbc 7b53 7a3f 6323 8bbd 6fbe dabc
00000050: 85ed 303e 318b 533f 0a0e 393e 3eab 86bd
00000060: 10ff a63e 9e7a 6a3e 9e2e b83e 29ff 3a3f
00000070: ccb8 a43d 5fac 5d3e f813 7dbe 1945 d63e
00000080: 0726 a53c b2d3 923e cd51 ad3e cd59 5a3e
00000090: d8ab 233f 4200 8b3e f47c d33e 1496 bfbd
000000a0: de45 98bc be75 573a 7d19 3d3f c6a7 5d3e
000000b0: 146a 713f 1dc7 b6bd 2f97 a93e 503f 253f
000000c0: 8d64 573e 5bcc 2a3e b747 263e 2086 653d
0.3192738 0.36992073 0.699407 0.17409924 0.4644879 0.18180211 0.47808018 0.048792593
0.534583 0.45219526 0.2359976 -0.061269484 -0.4811182 0.72841257 0.3868639 0.41811273
-0.02703901 0.9778363 -0.06793859 -0.026702134 0.17278107 0.82634264 0.18071762 -0.065756306
0.32616472 0.22898337 0.35973066 0.73045594 0.0804306 0.21647786 -0.24714649 0.41849592
0.020159734 0.28677136 0.33851472 0.21323319 0.6393409 0.27148634 0.4130627 -0.09354797
-0.018588003 0.0008219144 0.7386702 0.21646032 0.9430249 -0.089246966 0.33123156 0.6454973
0.21034451 0.16679518 0.16238295 0.056036115

features.6.2.block.2.fc1.bias f4 [52]
00000000: fd3a 8b3e e34d 9c3e 0986 573f 7fce 0dbe
00000010: 98d7 e13e 749f 393f 266d e43e 7868 cc3e
00000020: 3d8b 253f e238 993e aa34 663d e6a9 1d3f
00000030: 88be 613f ba71 083f 7818 963f d879 c93e
00000040: 06f3 ff3e a466 a93f 687f 743f fccc 2d3f
00000050: 2f96 773e f246 4abe b4d9 b4bc ad0f c33c
00000060: 3d66 813e 7488 fb3e ed76 863e 4148 9d3d
00000070: c47d edbe cb6e 173f 3c08 9f3e 86b3 893e
00000080: 379d 493f 76d0 1e3f f665 153d 7e36 afbd
00000090: ed6f b7bb 29c1 d13e 7b25 143f 3298 1a3f
000000a0: a82d ff3d a5f7 493e 1b6e 083f 0504 ad3e
000000b0: aa9e e73d 2621 853e 94dd f43e 1604 a23d
000000c0: a068 413f f767 a43e 455b 5f3f 7f6c a33e
0.27193442 0.30528173 0.84188896 -0.13848303 0.44109797 0.7250893 0.44614524 0.39923453
0.64665586 0.2992621 0.056202568 0.6158737 0.8818135 0.5329853 1.1726217 0.39350772
0.499901 1.3234448 0.95506907 0.67890906 0.24178384 -0.19753626 -0.022076465 0.023811186
0.25273314 0.49127543 0.26262608 0.07679797 -0.46385014 0.5915343 0.3106097 0.26894778
0.78755516 0.62036836 0.03647419 -0.085553154 -0.0055980594 0.40967682 0.5786969 0.6038848
0.1245988 0.19723375 0.5329301 0.3379213 0.1130956 0.26001853 0.478253 0.079109356
0.7555027 0.3211057 0.8724864 0.31918713

features.6.3.block.2.fc1.bias f4 [52]
00000000: fdea 363f af30 ad3d 21b7 013f f95b ab3e
00000010: 3049 6d3e 1349 73bd 2bde 213e 3643 d83e
00000020: 58f2 3b3e fe1a d43e 9bf0 e63e 25d8 783e
00000030: 7312 2a3d 338c d03e 8065 9f3e 1e9b 8fbe
00000040: 7cd0 833c 653b ad3e 921b c73e cc26 f73e
00000050: 93c6 fa3e c1d1 5b3f dd4f 4c3e df5d d23e
00000060: 608e 863d e6c1 203f dd05 4d3f b474 9f3f
00000070: 8048 333e b93e ea3e e9ad 813e c9a6 093e
00000080: 2f69 6a3f 8677 d93e 5791 613f c162 6d3e
00000090: 22ac 143f 5bbb b0bc 1789 993e bd28 cd3e
000000a0: 3cfc 903e 4cec 0b3f 7f47 953f 739a 6c3f
000000b0: ceb3 a63e 3b48 e53e 5f57 f03e ab6f 03be
000000c0: 0215 783e ab01 663f d29c 4a3f 78ee e43e
0.71452314 0.08456551 0.5067006 0.33468607 0.2317245 -0.05939586 0.15807407 0.42238778
0.18354166 0.41426843 0.45105442 0.24301203 0.0415215 0.40731964 0.31132126 -0.28048033
0.016090624 0.33834377 0.38888222 0.48271787 0.48979625 0.85866934 0.1995234 0.41087243
0.065701246 0.62795866 0.8008707 1.245749 0.17508125 0.4575098 0.25327995 0.1344253
0.9156675 0.42474002 0.88112396 0.23182203 0.58075154 -0.021573713 0.29987404 0.40070143
0.2831744 0.54657435 1.1662444 0.9242317 0.32559055 0.4478167 0.4694166 -0.12835567
0.24226764 0.89846295 0.7914554 0.44713187

features.6.4.block.2.fc1.bias f4 [52]
00000000: cd37 d53f 1f0c 663f f19a 453f 72be 093f
00000010: d916 d6bd 9de4 2c3f dd5d fa3e 006e 793d
00000020: 10a3 043f 4374 db3d 01b3 4b3f f2c2 1f3d
00000030: 6146 c43e 0b30 c23d cc3a c93f 3ffa 4b3f
00000040: 7065 cb3d 9963 ed3c a067 e23e 04a3 05be
00000050: 95b5 9c3e 4fec af3e deff e53e 1566 263f
00000060: 5ecc 7c3d 4fcf 393f 7e0e 403f 5dcd ad3f
00000070: ae0f 473f cf96 e3be 7107 68bc 694e 313f
00000080: 0ebf 293f 65b0 163f ef65 383e 8fad ef3e
00000090: 6596 6bbe 8b5c 83bd 424f 5a3d c25b f53e
000000a0: 3ac8 fa3e 7578 f23d a472 5b3e 4f68 043f
000000b0: 07d1 003e dfa4 f13e c012 d93e 7de8 f23e
000000c0: 48cc bc3e 40a8 cb3e be03 563f 118f e23e
1.6657654 0.89862245 0.77189547 0.5380622 -0.104535766 0.67536336 0.48899737 0.06089592
0.51811314 0.107155345 0.79570013 0.039004274 0.38334945 0.0948182 1.5721068 0.7967872
0.09931457 0.028978156 0.44219685 -0.13050467 0.30607286 0.34359977 0.44921774 0.64999515
0.061718337 0.7258195 0.75022113 1.3578297 0.777583 -0.44450995 -0.01416193 0.6926027
0.6630715 0.58862907 0.18007635 0.46812102 -0.2300659 -0.064141355 0.053298242 0.47921568
0.48980886 0.118393816 0.2143045 0.5172166 0.12579738 0.471961 0.42397118 0.47443
0.36874604 0.39776802 0.8359946 0.44249776

features.7.0.block.2.fc1.bias f4 [52]
00000000: 9bd8 ffbe c017 c5bf 4082 5abf 9ed7 79bf
00000010: eea6 dabf 7549 20bf b616 d3be 8dd7 bcbe
00000020: c960 9abf 8881 9cbf cc6f 0dbe 90db 7cbe
00000030: 1d24 3fbf 4a7e ec3c a0aa bdbf 1860 a3bf
00000040: 6e7f a3bf eda9 21bf 13b5 81bf cdf8 d0bf
00000050: 231a 21bf 8be2 323f 8552 67bf 17fa e6be
00000060: 4a12 a3be bf31 3dbf 9bb0 7abf f9a0 db3d
00000070: 16e0 833e fab8 dcbd 65bc 0bbf 5a2e d4be
00000080: e230 7cbf 337a 66bf 167b abbf 642d cebf
00000090: 1b19 3dbf 1190 32bf d949 a2bf 1734 9fbf
000000a0: d6b8 4dbd 3f8b 1bbf d462 fcbe 7a0f dbbe
000000b0: ed82 fabf 6ea2 e6be 9e06 00bf 77be c2bf
000000c0: 3128 3840 e94b f9bf a20d 13bf c883 81bf
-0.49969944 -1.5397873 -0.85354996 -0.9759463 -1.7082193 -0.62612087 -0.41228265 -0.36883202
-1.2060786 -1.222703 -0.13812178 -0.24693131 -0.7466448 0.028868813 -1.4817696 -1.27637
-1.2773263 -0.6314991 -1.0133384 -1.6325928 -0.62930506 0.6987693 -0.9036029 -0.45112678
-0.3184989 -0.7390403 -0.9792573 0.107240625 0.25756902 -0.10777469 -0.5458434 -0.41441613
-0.9851209 -0.9003021 -1.3396938 -1.6107602 -0.7386643 -0.6975108 -1.2678787 -1.2437772
-0.0502251 -0.6075935 -0.4929415 -0.42785245 -1.9571205 -0.450458 -0.500101 -1.5214375
2.877453 -1.9476291 -0.5744268 -1.0118341

classifier.1.bias f4 [2]
00000000: c473 c4bc 9150 653a
-0.023980983 0.0008747662

features.0.0.weight_bias f4 [32]
00000000: 3e96 15c0 6807 db3f 8829 c640 704e 1f40
00000010: 66ad aa40 5b94 c7bf 2502 fa3f f8ef 2140
00000020: c312 523f 9593 7cc0 243a 5f41 9efd a3c0
00000030: 2200 7140 6579 2840 8c3f b7c0 f026 0940
00000040: d639 1f3f 9189 1cc0 96f4 dcbe ab1c 1741
00000050: 553d 0040 9e1e c13f 1e3b ff3f 35ac cec0
00000060: 14c1 01c0 b47b 0240 a695 a1bf a844 2f41
00000070: ecb6 eb3f e6e6 f33d 6e88 b8c0 a754 5940
-2.337295 1.7111635 6.1925697 2.4891624 5.333667 -1.559215 1.9531904 2.5302715
0.8205988 -3.9465077 13.9516945 -5.124709 3.765633 2.6324093 -5.726507 2.1430016
0.62197626 -2.4458964 -0.43155354 9.444499 2.0037434 1.5087469 1.9939916 -6.4585214
-2.0274096 2.0388002 -1.2623794 10.954262 1.8415198 0.11909275 -5.766654 3.3957918

features.1.0.block.0.0.weight_bias f4 [32]
00000000: 80cd 363e 6107 8240 1cb6 1740 8244 8b40
00000010: c32b f340 a63d 523f 6905 8f40 b0a0 213e
00000020: 5796 a740 f629 403f 56a3 0040 f57d db3e
00000030: 2759 3840 a0b6 803d cb07 9dbf 1c35 18bf
00000040: 2c6c f840 6dda b7bf d829 0c3f ebc8 01c0
00000050: 2e93 1e40 0a39 2940 eb2f 3540 a57a 17c0
00000060: 0498 c23e 8235 5a40 28d1 fabf ac41 f33f
00000070: f4af 5140 d606 e93f 0276 c43f de9f 8140
0.1785183 4.0634007 2.37049 4.352113 7.599092 0.8212532 4.4694104 0.15783954
5.237102 0.7506403 2.0099692 0.42869535 2.8804414 0.06284833 -1.2268003 -0.5945604
7.7632046 -1.4363533 0.5475135 -2.027888 2.4777331 2.6441064 2.8310497 -2.3668606
0.38006604 3.4095159 -1.959508 1.9004416 3.2763643 1.8205211 1.5348513 4.050765

features.1.0.block.2.0.weight_bias f4 [16]
00000000: b223 55bd 60ef a8c1 514c 8941 a294 47c0
00000010: ce19 03c1 cde4 c3c0 b6d9 1abf 7c20 7fbf
00000020: 1365 f2bf ee8f 3141 345c 7cc1 553c 8cc1
00000030: 6e68 47c1 bbd9 acc1 72b0 a2c1 4889 4b40
-0.052035995 -21.116882 17.162264 -3.1184468 -8.1938 -6.12168 -0.6048845 -0.9965894
-1.8937095 11.097639 -15.772511 -17.529459 -12.462996 -21.606314 -20.336155 3.180254

features.1.1.block.0.0.weight_bias f4 [16]
00000000: 2991 a3bf 49da a540 a5e8 2640 fcd6 0840
00000010: 7656 2840 5280 cc3f 8475 2340 d0a8 3d40
00000020: df48 0d40 644d 1940 dcdf a1bf 9870 8940
00000030: e0a5 2740 e367 3f40 0129 1cc0 c8ee ce3f
-1.2778674 5.182896 2.6079495 2.1381216 2.6302772 1.597666 2.5540476 2.9634285
2.2075727 2.3953485 -1.2646441 4.2949944 2.6194992 2.9907157 -2.4400027 1.616662

features.1.1.block.2.0.weight_bias f4 [16]
00000000: e020 393e d868 3bc1 f275 0141 920d dfc0
00000010: bb26 c740 0d14 6e40 431b 66c0 6031 af3d
00000020: 50fe 0340 7ac9 3040 4b5a 833f cf6d 20c1
00000030: 9e95 f4c0 9fce c6c0 f486 75c0 ae94 a5c0
0.18078947 -11.713097 8.091295 -6.9704065 6.223478 3.7199738 -3.595414 0.085543394
2.062397 2.7622972 1.026193 -10.026809 -7.643264 -6.2127223 -3.836362 -5.1743994

features.2.0.block.3.0.weight_bias f4 [24]
00000000: 2c06 1540 1604 14c1 b013 81c0 d56f 8f3f
00000010: 4587 92c0 41ef c73f 1943 ab41 33ad 8d41
00000020: 3b73 8b40 217b 2641 c33f 9d3f 6b47 97c1
00000030: 8de0 abc0 32e9 7541 8528 a840 77eb 8340
00000040: aace 1e42 2489 80c0 6914 02c1 ab55 23c1
00000050: 3c56 2a41 60e6 da40 30da f040 8377 8c3f
2.3285017 -9.250998 -4.0336533 1.1206003 -4.5790124 1.561989 21.407763 17.70957
4.357816 10.405061 1.2285084 -18.909872 -5.371161 15.369432 5.254946 4.1224933
39.70182 -4.016741 -8.129983 -10.208415 10.646053 6.840622 7.526634 1.0973972

features.2.1.block.3.0.weight_bias f4 [24]
00000000: b43d 02c1 5069 da3e 85c2 b9be 8c2c eb3e
00000010: 7809 06c1 6a37 ca3d 28a6 f6bf c68b a1c0
00000020: f206 89c0 1c79 94c0 1206 1dbf b01c 80c0
00000030: ccd0 2d3f 4d53 b3c0 b949 9740 6ca8 8dbe
00000040: ebf3 00c1 6a1e 0b40 eaa3 83c0 d08e dc3e
00000050: d0b8 8540 f867 1441 32c8 ccc0 da0d c63f
-8.140064 0.42658472 -0.3628122 0.45932424 -8.377312 0.09873851 -1.9269457 -5.048312
-4.282098 -4.639784 -0.6133739 -4.003502 0.67896724 -5.6039186 4.7277493 -0.27667558
-8.05955 2.1737313 -4.113759 0.43077707 4.17881 9.275383 -6.399438 1.5472977

features.2.2.block.3.0.weight_bias f4 [24]
00000000: 1d9a 593f 823c e2bf 683b 0ebf a9ac 08bf
00000010: 6f1f 3b40 382b 3b3e 8458 00c0 7a75 9040
00000020: 84bd ed3f b642 60bf a51c 0dc0 68a5 1641
00000030: 5421 16bf 4cfc f5c0 c838 8fbb cc97 3fc0
00000040: f0d4 8c40 0f03 e53f 2c9f e240 ff67 5bc0
00000050: 3351 263f 8075 f6c0 300e 8f3e eea3 b53f
0.85000783 -1.7674716 -0.55559397 -0.5338846 2.9237936 0.18278205 -2.0054026 4.5143404
1.857346 -0.8760179 -2.2048733 9.415382 -0.58644605 -7.687048 -0.0043707825 -2.99364
4.4009933 1.7891558 7.08193 -3.4282224 0.6496765 -7.7018433 0.27940512 1.4190652

features.3.0.block.3.0.weight_bias f4 [48]
00000000: 54e6 6cc1 dc29 6ac1 cc5c f641 c8a1 19c0
00000010: 43b1 ed40 fc7b cc40 3e62 f6c0 9876 6840
00000020: 1c0c bbc0 c9ba d740 88b9 0bc0 80da cd3e
00000030: afd2 803f 99d4 db3f dfda 3cc1 e6b6 0241
00000040: 446b 9bc1 2235 c0bf 94c0 2fc1 c032 9740
00000050: d70a 5441 999d 7840 91b8 d0bf d1c3 dd41
00000060: 0353 91bf 6f71 fec0 cca9 1341 d4d2 8541
00000070: 1bc7 75c1 307c 1441 1289 d6bf 4312 0440
00000080: 1017 00c1 913b c2c0 6c81 bbc0 f7de d740
00000090: b588 15c0 2715 9e40 3c54 9cc1 7c09 1941
000000a0: 8c72 09c1 6356 bdc0 3c4e 4940 4894 4b41
000000b0: 4a76 a9c1 3288 20bf a32b 9b3f 9506 8ac0
-14.806232 -14.63522 30.795311 -2.4004993 7.4278884 6.390135 -7.6994925 3.6322384
-5.845228 6.741551 -2.183199 0.40205765 1.0064296 1.7174255 -11.803435 8.169653
-19.427376 -1.5016215 -10.984516 4.724945 13.252646 3.884619 -1.6306325 27.720613
-1.1353458 -7.951347 9.228954 16.727943 -15.36111 9.280319 -1.676058 2.0636146
-8.0056305 -6.0697713 -5.8595486 6.7459674 -2.336469 4.940082 -19.54113 9.5648155
-8.590466 -5.9167953 3.1454 12.7237015 -21.182758 -0.6270782 1.2122692 -4.3133035

features.3.1.block.3.0.weight_bias f4 [48]
00000000: 06e4 dc3f 1c22 0540 02f1 4ac0 c621 c0bf
00000010: 0c75 ce3e 1de4 d93f 0e5a 5abe d3a8 c4bf
00000020: 20e1 0c3f d622 7240 d382 a740 d2b6 0a3f
00000030: bee8 19bf a519 18c0 3468 c03f 7b78 06c0
00000040: ee78 18c0 7643 dd3e b22a cabf a0a2 6040
00000050: 1c96 9c3f c86a 8c3e b479 863e dd30 0540
00000060: f0a4 76bf f880 54be 484c 883d e55b 0a40
00000070: 81ca d73e a420 88c0 7f3d dc40 d124 52bf
00000080: 0167 8d40 cdc2 8bc0 33d0 dc3f 0c69 0740
00000090: f5a2 2d40 6c61 e6bf a09d 89bf 6167 8140
000000a0: 875e c03f 20b1 62bf b460 a63f facd 2fbf
000000b0: 8a7a a0c0 b97c 27c0 fe88 3b40 bb9e 4ebf
1.7257087 2.0802069 -3.17096 -1.5010307 0.40323675 1.702274 -0.21323416 -1.5364021
0.55031013 3.7833762 5.2347198 0.5418521 -0.6012076 -2.3765652 1.50318 -2.1011035
-2.382381 0.4321553 -1.579428 3.5099258 1.223331 0.27425218 0.26264727 2.0811074
-0.96345425 -0.20752323 0.066551745 2.1618588 0.42146686 -4.2539845 6.882507 -0.8208743
4.4188237 -4.3675294 1.7251037 2.1157866 2.713071 -1.7998481 -1.0751228 4.0438695
1.5028847 -0.8855152 1.2998261 -0.6867367 -5.0149584 -2.6169875 2.9302363 -0.80710953

features.3.2.block.3.0.weight_bias f4 [48]
00000000: 6992 1e3f e031 4e3f 8cf7 a9be 8639 32be
00000010: a32e d2bf caec fe3f 076c 0140 7c17 adbf
00000020: 5b15 92be 400c e2bd 7621 75c0 01fa 48bf
00000030: 9eb2 333e 2430 de3e 7a6b 8e40 4cb0 563e
00000040: ced0 f8be d4cc 0140 928d c23e a06f 02bf
00000050: e5c8 2f3f b0d0 c63d 3074 5f40 1852 c53f
00000060: 6a9c 983f 4837 e5be ebc0 973e 56c0 f8be
00000070: a041 ddbd 41c1 55c0 5d4a a640 d0ef 63bd
00000080: bc6c 93be 2efd 6e40 3ba5 be3f f8fa 9cbf
00000090: 66c3 3e40 8e8e 81bf 605a 5f3e 553f 473e
000000a0: 2989 893f a77a cf3e 5890 51be 9ec2 6fbf
000000b0: 72ac cabf d1de 3440 d882 bf3f b5f7 143f
0.61942154 0.80544853 -0.33196676 -0.17404756 -1.6420482 1.9916012 2.0222185 -1.3522792
-0.28531918 -0.11037493 -3.8301673 -0.78506476 0.17548606 0.43396103 4.4506197 0.2096569
-0.48596805 2.0281267 0.37998635 -0.50951576 0.68665916 0.09707773 3.4914665 1.5415678
1.1922734 -0.4476874 0.29639372 -0.4858424 -0.108035326 -3.3399203 5.1965775 -0.055648625
-0.28793895 3.7342029 1.4894174 -1.226409 2.9806762 -1.0121629 0.21811819 0.19457753
1.0744983 0.40523264 -0.20465219 -0.9365634 -1.5833876 2.8260996 1.4961805 0.5819047
